encoder.pth (torch, 601928 bytes, 6 tensors)

conv.0.weight f4 [128, 80, 5]
0	0xbd658633	-0.056036185
1	0xbc1536a7	-0.009107268
2	0xbd66c0ab	-0.056336086
3	0xbd2e3d82	-0.042539127
4	0xbd7038af	-0.058647808
5	0x3c844e44	0.016150601
6	0xbd72b62a	-0.059255756
7	0x3bd0e72f	0.0063752155
8	0xbce97957	-0.028500242
9	0xbc7e3cb5	-0.015517403
10	0xbd6d5b47	-0.057948377
11	0xbd4db98f	-0.05022579
12	0xbc35bab8	-0.0110918805
13	0x3b8f7bb0	0.0043787584
14	0x3ba0f2a5	0.004911738
15	0xbd7985a8	-0.06091848
16	0xbd6cb391	-0.057788435
17	0xbd8753f1	-0.066078074
18	0x3b040041	0.0020141753
19	0xbd41e87f	-0.047340866
20	0xbd15a1d8	-0.0365313
21	0x3bcb9846	0.006213221
22	0xbd65c0f7	-0.05609223
23	0xbce1bb4f	-0.027555136
24	0xbd13958d	-0.036031295
25	0x3c431dc0	0.011908948
26	0xbca54cf3	-0.020178294
27	0xba614aec	-0.0008594233
28	0xbd16f685	-0.036856193
29	0xbc0c4d32	-0.008563327
30	0xbd7cc8db	-0.06171499
31	0x3bfc0e91	0.007692166
32	0xbd80ac28	-0.06282836
33	0xbc294469	-0.010331252
34	0xbd7ac16c	-0.061219618
35	0xbd8242ea	-0.06360419
36	0xbc0e6e8e	-0.0086933505
37	0x3b596e61	0.0033177363
38	0xbc609ccd	-0.013709259
39	0xbc49a24d	-0.012306762
40	0xbd5e38fb	-0.05425356
41	0xbc91ec00	-0.017812729
42	0xbc7c81e8	-0.015411831
43	0xbd00b24e	-0.031420045
44	0x385da035	5.283971e-05
45	0xbca9ab2f	-0.02071151
46	0xbd6ae24c	-0.05734472
47	0x3c86df79	0.016463982
48	0x3c7c2503	0.015389684
49	0xb9e9b54a	-0.00044576294
50	0xbca3e8e7	-0.020008517
51	0xbd706c6d	-0.058697153
52	0x3c2777b6	0.010221412
53	0x3c5ed058	0.013599478
54	0xbd640fa1	-0.055678967
55	0x3bce2cd3	0.0062919646
56	0xbd22e63e	-0.039770357
57	0xbd171c51	-0.03689224
58	0xbd573466	-0.052540205
59	0x3bd50a55	0.006501476
60	0xbae14516	-0.0017186727
61	0xbd157e13	-0.036497187
62	0xbd165aa4	-0.036707535
63	0xbcd2956e	-0.02570602
64	0xbd140d16	-0.036145292
65	0xbd749175	-0.05970903
66	0xbd0fdf1c	-0.035124883
67	0xbd8092f3	-0.06278028
68	0xbc9d29fd	-0.01918506
69	0x3c85ba76	0.016324263
70	0xbcbbead9	-0.022939133
71	0xbcdfec32	-0.027334306
72	0xbbfa3b92	-0.007636496
73	0xbcea3fb0	-0.028594822
74	0xbada32ff	-0.0016647278
75	0xbc84b913	-0.016201532
76	0xbd6e18e6	-0.058129214
77	0xbd45e313	-0.048312258
78	0xbd20b3ac	-0.03923385
79	0xbd2af02d	-0.041732956
80	0x3c51ea7d	0.012812254
81	0xbc3f3100	-0.011669397
82	0xbd14be63	-0.03631438
83	0xbab22682	-0.0013591798
84	0xbd7306e4	-0.059332743
85	0xbc510541	-0.0127576
86	0xbc3ffc76	-0.011717906
87	0xbd1a9ab2	-0.037745185
88	0xbceb7990	-0.028744489
89	0xbc3fea8a	-0.011713633
90	0xbaadccd0	-0.0013259891
91	0xbcbe1b06	-0.023206245
92	0xbc05dbf6	-0.008170119
93	0xbd1785d2	-0.036992855
94	0x3acc1aea	0.0015571986
95	0xbd250f58	-0.040297836
96	0xbd1435f0	-0.03618425
97	0xbd21d105	-0.039505977
98	0xbca804bb	-0.020510068
99	0xbb98c622	-0.004662291
100	0x3bc2abc0	0.0059408844
101	0xbd8571f7	-0.06515878
102	0x3c5c6813	0.013452548
103	0xbd549d24	-0.051907673
104	0x3c592f1e	0.0132558625
105	0xbd13f421	-0.03612149
106	0xbd7d0acf	-0.061777886
107	0xbd4c6376	-0.04989954
108	0xbb32a507	-0.0027259008
109	0x3bb392eb	0.0054801605
110	0xbd5cb2e0	-0.053881526
111	0xbbcc3c47	-0.0062327716
112	0xbce6dec5	-0.028182397
113	0xbd34abaa	-0.044109024
114	0xbcd67792	-0.026180062
115	0xbd316934	-0.04331322
116	0xbcb06b48	-0.02153553
117	0x3c11a38b	0.008889089
118	0x3c1a4137	0.0094149625
119	0x3c140a00	0.009035587
120	0xbd2c632e	-0.042086773
121	0x3c221bff	0.00989437
122	0xbcea1c17	-0.028577847
123	0xbc3ec233	-0.01164298
124	0xbd426ffe	-0.047470085
125	0x3bbc6aa1	0.005750016
126	0x3b136203	0.002248884
127	0xbd644488	-0.05572942
128	0xbd295eae	-0.04135006
129	0xbd86afc1	-0.06576491
130	0xbceb6e53	-0.02873913
131	0xbd7f7a72	-0.062372632
132	0x3b7ac119	0.0038262068
133	0x3c02c9fd	0.007982728
134	0xbd083062	-0.033249266
135	0xbc66c953	-0.014086085
136	0xbcee5a72	-0.029095862
137	0xbc82c498	-0.015962884
138	0x3c05f355	0.008175691
139	0x3bcce310	0.006252654
140	0xbd575ed6	-0.052580677
141	0x3b794f17	0.0038041526
142	0xbcda15cb	-0.02662172
143	0x3c31a67f	0.010842918
144	0x3bfd3459	0.0077271876
145	0x3c0c0c1b	0.008547808
146	0xbcdd29ca	-0.026997466
147	0xbd46eaa8	-0.04856363
148	0xbcb61f62	-0.022231761
149	0x3bb2fd61	0.005462334
150	0xbd1db459	-0.03850207
151	0xbd8685bc	-0.065684766
152	0x3c2846ff	0.010270833
153	0xbd62091d	-0.055184472
154	0xbcf80fb8	-0.030280933
155	0xbd08f477	-0.033436265
156	0xbd54f0d4	-0.051987484
157	0xbd096f0f	-0.03355318
158	0xbc8984cc	-0.016786955
159	0xbd869205	-0.0657082
160	0xbd390805	-0.045173664
161	0xbd4ac5ae	-0.04950493
162	0xbcb147ed	-0.021640742
163	0xbd80e231	-0.062931426
164	0x3ae29269	0.0017286065
165	0xbd408a0e	-0.04700666
166	0xbd47eb68	-0.048808485
167	0xbd47124f	-0.048601445
168	0xbd82fcd7	-0.063958816
169	0xbcca7d49	-0.024717944
170	0xbcabefb2	-0.02098832
171	0xbc2c48fa	-0.010515446
172	0xbac27fc6	-0.0014839105
173	0xbd01334c	-0.03154306
174	0xbd83b968	-0.06431848
175	0xbafd1a8b	-0.0019310279
176	0xbd69a713	-0.0570441
177	0xbcbe728d	-0.023247981
178	0xbcb37dcf	-0.021910576
179	0xbb168de0	-0.0022972748
180	0xbd5a24ea	-0.05325786
181	0xbd3b80e5	-0.04577722
182	0x3c5ba088	0.013404973
183	0x3b524fe0	0.0032091066
184	0xbc50346a	-0.012707809
185	0xbd2a114f	-0.041520413
186	0x3bec4896	0.0072108014
187	0xbb6f4f98	-0.0036515947
188	0xbd32944e	-0.043598466
189	0xbced6e69	-0.028983312
190	0xbd821fa6	-0.06353693
191	0x3b0f7ad0	0.002189327
192	0xbd27a89f	-0.040932294
193	0xbd449d74	-0.04800172
194	0x3c386fc9	0.01125712
195	0x3c883781	0.016628029
196	0x3c4d433b	0.012528236
197	0xbd135572	-0.03597016
198	0xbcdeac5f	-0.027181802
199	0xbc9bcd79	-0.019018875
200	0xbd66d68c	-0.05635695
201	0x3c6f7caf	0.014617129
202	0xbcc9d3fd	-0.024637217
203	0xbd15a1b7	-0.036531176
204	0x3c69a30b	0.014260064
205	0xbbefab0a	-0.0073140906
206	0x3bb83c0c	0.0056223925
207	0xbd50413d	-0.050843466
208	0xbd7a3c16	-0.06109246
209	0xbc80f7ab	-0.015743097
210	0x3bfadfa4	0.0076560546
211	0xbd0b97ec	-0.03408043
212	0xbcd7f894	-0.026363648
213	0xbd02352e	-0.031788997
214	0xbc008ac7	-0.007845587
215	0xbc5e800b	-0.0135803325
216	0xbd63fecb	-0.05566291
217	0x3a65ef9a	0.000877136
218	0xbcc32dc9	-0.023825543
219	0xbc904eac	-0.017615639
220	0xbc347c88	-0.011016019
221	0xbcd71853	-0.026256716
222	0xbd491297	-0.049089994
223	0xbd0c8484	-0.034306064
224	0xbd7fb3ab	-0.062427204
225	0xbc501234	-0.012699652
226	0xbd804d84	-0.06264785
227	0xbd327602	-0.043569572
228	0x3c447751	0.011991338
229	0xbd80c598	-0.06287688
230	0xbcccb4ce	-0.024988558
231	0x3c8144ba	0.015779842
232	0xbbd178df	-0.006392583
233	0xbc590a53	-0.01324709
234	0xbc95a783	-0.018268352
235	0xbd7a1229	-0.061052475
236	0xbd134cf7	-0.03596207
237	0xbd1c0375	-0.038089234
238	0x3a2267ca	0.00061952753
239	0xbd74ad1e	-0.05973541
240	0xbd65dace	-0.05611687
241	0xbd0a735d	-0.033801425
242	0xbd796b18	-0.06089315
243	0xbd52a60d	-0.05142789
244	0xbcedad5a	-0.029013325
245	0x3b303643	0.0026887811
246	0xbbcf91c4	-0.0063345153
247	0xbd83c069	-0.06433184
248	0xbd11cb60	-0.035594344
249	0xbb7d308e	-0.0038633677
250	0xbd2895a6	-0.04115834
251	0xbd79f64a	-0.061025895
252	0xbce62acf	-0.028096585
253	0xbcaf5e5d	-0.0214073
254	0xbd57cee8	-0.052687556
255	0xbd835b23	-0.06413867

conv.0.bias f4 [128]
0	0xbbd26ff6	-0.006422038
1	0x3c2d2e0d	0.010570061
2	0xbcb1ab1d	-0.021688038
3	0x3c818106	0.015808593
4	0xbd275513	-0.040852617
5	0xbcc71bba	-0.024305213
6	0xbce0af1c	-0.027427249
7	0xbd14a48c	-0.036289737
8	0xbd44eddf	-0.048078414
9	0xbce43707	-0.02785827
10	0xbbb6cea5	-0.005578833
11	0x3b7a1a13	0.0038162514
12	0xbb6d63d5	-0.0036222835
13	0x3cae40c2	0.021271113
14	0xbd183e38	-0.03716871
15	0xbcc9b074	-0.024620272
16	0x3c88642d	0.01664933
17	0x3ba570be	0.0050488403
18	0xbc4025fe	-0.011727808
19	0xbce5321d	-0.027977997
20	0xbd452df4	-0.048139527
21	0x3a93051f	0.0011216736
22	0xbd0e31de	-0.034715526
23	0xbcdae27d	-0.026719326
24	0xbd72ec2d	-0.059307266
25	0xbc0d640f	-0.008629813
26	0xbbca9c6f	-0.006183199
27	0xbcb6691f	-0.022266923
28	0xbd43456b	-0.047673624
29	0xbd3f9e37	-0.046781745
30	0xbc99bb74	-0.018766142
31	0xbc5c0ef1	-0.013431297
32	0xbc1b8dd5	-0.009494265
33	0x3b027e37	0.0019911656
34	0xbd1c0c81	-0.038097862
35	0xbc531ca8	-0.01288525
36	0xbca9e0d5	-0.020737091
37	0xbd183419	-0.03715906
38	0xbd5492a5	-0.051897664
39	0xbbea84f6	-0.0071569635
40	0xbd6b6b44	-0.057475343
41	0xbca4eff5	-0.020133952
42	0xbd397e0b	-0.04528622
43	0xbc521db3	-0.012824464
44	0x3bec848a	0.0072179483
45	0xbc338df4	-0.010959137
46	0xbd24f375	-0.04027124
47	0xbd3dec5a	-0.04636798
48	0xbcf9ca13	-0.030491864
49	0x3bf18689	0.007370774
50	0x3c729bef	0.014807685
51	0x3cde3e2f	0.02712926
52	0xbd1259d7	-0.03573021
53	0x3c525564	0.0128377415
54	0xbd0ed690	-0.03487259
55	0xbd22383a	-0.039604403
56	0xbd251a92	-0.040308543
57	0xbaa47bf3	-0.0012549147
58	0xbd63566b	-0.055502336
59	0x3bd354e9	0.006449331
60	0xbd812978	-0.06306738
61	0x3ab6259d	0.0013896708
62	0x3b8d2605	0.004307511
63	0xbd472ce1	-0.048626784
64	0xbc1ea403	-0.009682658
65	0x39acb6e1	0.00032942652
66	0xbcb8e672	-0.022570822
67	0x3cac8129	0.021057682
68	0x3c2c4f2e	0.010516925
69	0x3be65ffb	0.0070304847
70	0xbd31ac23	-0.043377053
71	0xbd7bb902	-0.061455734
72	0x3c197cdb	0.009368147
73	0x3bd211c5	0.0064108097
74	0x3b7bead7	0.0038439536
75	0x3c6bbfb2	0.014388965
76	0x3cb8da81	0.022565128
77	0xbd78b11f	-0.06071579
78	0xbc6dfb8d	-0.014525306
79	0x3c8f1d22	0.017469946
80	0xbd55d2f9	-0.052203152
81	0xbd52242a	-0.05130402
82	0xbccb3353	-0.024804747
83	0x3ad8f5dd	0.0016552765
84	0xbd8228b5	-0.063554205
85	0xbbaf21b6	-0.005344595
86	0xbcb362b8	-0.021897659
87	0xba9b1d07	-0.0011834212
88	0xbd08c264	-0.03338851
89	0xbc147569	-0.009061196
90	0xbd801485	-0.06253914
91	0x3c450dd5	0.012027224
92	0xbd093c83	-0.033504974
93	0xbd1498d0	-0.036278546
94	0x3c5e33b4	0.013562132
95	0xbc01e569	-0.007928231
96	0xbc2a38cd	-0.010389519
97	0xbc6f404a	-0.01460273
98	0xbc5fa250	-0.013649538
99	0xbc21a72d	-0.009866518
100	0xbccacf38	-0.024757013
101	0xbcdcf862	-0.026973907
102	0xbcbb1f2e	-0.022842016
103	0xbd83756e	-0.06418882
104	0xbd1a1456	-0.03761705
105	0xbb8ee77b	-0.0043610907
106	0xbbd4eab6	-0.0064977063
107	0xbcb70bc4	-0.022344477
108	0xbd188a59	-0.037241314
109	0xbcc17c96	-0.023618978
110	0x3b437e50	0.0029829927
111	0xbbde7fc5	-0.0067901337
112	0xbc4aca4d	-0.012377334
113	0xbc283019	-0.010265374
114	0x3b5a608f	0.0033321714
115	0x3c82bcc3	0.01595915
116	0xbceca9f1	-0.028889628
117	0x3b5e74a7	0.0033944042
118	0xbd1ac801	-0.037788395
119	0xbd2197ac	-0.039451286
120	0xbd60b870	-0.054863393
121	0xbd0c51a3	-0.034257542
122	0x3cdaf6f0	0.026729077
123	0xbd879b5c	-0.06621429
124	0xbd412346	-0.04715278
125	0xbd09a386	-0.033603214
126	0x3b8b9ef7	0.0042608934
127	0xbcb45213	-0.022011792

conv.2.weight f4 [128, 128, 5]
0	0x3d0abaf7	0.03386971
1	0x3d4ca633	0.049963187
2	0x3d66c4ac	0.056339905
3	0xbaf4656c	-0.0018645949
4	0x3cfac896	0.030613225
5	0x3d06f30c	0.03294663
6	0x3d0d6b8a	0.034526385
7	0xbaf5f01c	-0.0018763575
8	0x3bd30592	0.006439873
9	0x3c428e7b	0.01187479
10	0x3d6867c5	0.056739587
11	0x3d5d2bb4	0.053996757
12	0x3bc6e0da	0.006069285
13	0x3c07ce78	0.008288972
14	0x3ca0f230	0.019646734
15	0xbcf0e5c1	-0.02940643
16	0xbcd83a75	-0.026395062
17	0xbd0f9fe2	-0.035064586
18	0xbd1fff0c	-0.03906159
19	0xbd256d8b	-0.04038767
20	0xbcfca739	-0.030841457
21	0x3b5616dd	0.0032667436
22	0xbd4980ff	-0.049195286
23	0xbd44be66	-0.04803314
24	0xbd129a50	-0.035791695
25	0xbd0afd8d	-0.03393321
26	0xbc7b2a8f	-0.015329971
27	0xbc3006f7	-0.010743848
28	0xbc17f35b	-0.009274329
29	0xbc59d431	-0.013295219
30	0x3d24273a	0.040076472
31	0x3cb2118c	0.021736883
32	0x3cc76365	0.024339387
33	0x3c76af2d	0.015056414
34	0x3c8f4c46	0.017492425
35	0x3c438b72	0.011935102
36	0xbd25002a	-0.04028336
37	0xbd08193c	-0.03322719
38	0xbcfece2a	-0.031104166
39	0xbd484a73	-0.048899125
40	0x3d1084c3	0.03528286
41	0x3cf94aae	0.030431118
42	0x3c57426a	0.013138393
43	0x3be1caee	0.006890646
44	0x3cd176b5	0.0255693
45	0x3d15f7a4	0.03661312
46	0x3b96c906	0.0046016006
47	0xbc0b42ad	-0.008499783
48	0x3d6a8f8c	0.057265803
49	0x3d37bb81	0.044856552
50	0x3cfe2f09	0.031028287
51	0x3d371f5f	0.044707652
52	0x3ca3ffff	0.02001953
53	0x3d3f57a2	0.046714433
54	0x3cd86067	0.026413156
55	0xbd608a83	-0.054819595
56	0xbd47c2d7	-0.048769798
57	0xbd641f31	-0.05569381
58	0xbca19c5f	-0.019727884
59	0x3c0f98b1	0.008764432
60	0xbb6795b8	-0.0035337042
61	0xbd0aaf11	-0.033858363
62	0xbc94e7cc	-0.018176936
63	0xbd05f2b9	-0.03270218
64	0xbd1fad1e	-0.038983457
65	0xbd1ac1d6	-0.037782513
66	0x3bfd9385	0.007738533
67	0xbbe76c3b	-0.0070624626
68	0x3c36325f	0.011120408
69	0xbd239927	-0.03994098
70	0x3d13cc10	0.03608328
71	0x3ccbbacd	0.024869347
72	0xbc632725	-0.013864313
73	0xba70ceba	-0.0009186078
74	0x3cfa4a45	0.030552993
75	0xbbbbd22a	-0.0057318406
76	0xbb1399ee	-0.002252217
77	0xbd120fc8	-0.03565958
78	0xbd0da4bd	-0.034580935
79	0xbcb90171	-0.022583695
80	0xbd3c6c80	-0.04600191
81	0xbbeb4b65	-0.0071806186
82	0xbd17438f	-0.036929663
83	0x3ae9f642	0.001784988
84	0xbcc8153b	-0.024424186
85	0xbcd3b616	-0.025843661
86	0xbc97d56e	-0.018534388
87	0x3cae5d21	0.021284642
88	0xbb4abd4f	-0.003093559
89	0x3d5429db	0.05179773
90	0xbc6d8024	-0.014495883
91	0xbc033a9a	-0.008009577
92	0x3ac308f7	0.0014879991
93	0xbc6ce97e	-0.014459966
94	0x3c00920a	0.007847318
95	0x3be8c858	0.007103961
96	0x3c219c50	0.009863928
97	0x3ce0b733	0.027431106
98	0xbc7cf0bd	-0.015438256
99	0x3caf77c5	0.021419415
100	0xbd127068	-0.03575173
101	0x3bb44f5d	0.005502625
102	0xbc03b068	-0.008037664
103	0xbc987700	-0.018611431
104	0xbcb859e0	-0.022503793
105	0x3d130e38	0.035902232
106	0x3d576f51	0.052596394
107	0x3d51ec12	0.051250525
108	0x3b302e11	0.0026882926
109	0x3d2b9bd7	0.041896667
110	0xbd14e86f	-0.03635448
111	0xbc84930d	-0.0161834
112	0xbc459838	-0.012060218
113	0xbc47ce7e	-0.012195228
114	0xbd275c8e	-0.04085975
115	0xbc2a5f44	-0.01039869
116	0xbd298b45	-0.041392583
117	0xbc983056	-0.018577736
118	0x3c545d19	0.012961649
119	0xbb99ebfd	-0.0046973214
120	0xbae9d8c6	-0.0017841093
121	0x3c4e491a	0.012590671
122	0xbd088223	-0.033327233
123	0xbcf59f41	-0.029983165
124	0xbd08af88	-0.033370525
125	0xbd407ff4	-0.046997026
126	0x3c3dfb01	0.0115954885
127	0x3c4e08bb	0.012575324
128	0xbd1b754c	-0.03795366
129	0xbcd3b11e	-0.025841292
130	0xbd253740	-0.040335894
131	0xbc0083ed	-0.007843954
132	0xbbf814eb	-0.007570853
133	0x3c2ce057	0.010551534
134	0xbc55f189	-0.013058075
135	0x3ceb62b9	0.028733598
136	0x3d693358	0.05693373
137	0x3d6287b3	0.055305194
138	0x3cf8a5e1	0.030352535
139	0x3c5fb7b1	0.013654635
140	0x3ca4a8b6	0.020099979
141	0x3d585700	0.052817345
142	0x3d3a445b	0.045475345
143	0x3d04cd10	0.032422125
144	0x3cdf076c	0.027225219
145	0xbb16a378	-0.0022985619
146	0x3c521860	0.012823194
147	0x3d25c595	0.040471632
148	0x3d4d8108	0.050171882
149	0x3b122bb4	0.002230388
150	0xbcd5b235	-0.026085952
151	0xbd4c42dc	-0.04986845
152	0xbd40dd13	-0.047085833
153	0xbd4d7fd1	-0.050170723
154	0x3c51f894	0.012815613
155	0x3c46a285	0.012123709
156	0x3cb4f4f9	0.022089468
157	0x3c984adc	0.018590383
158	0x3b84bc7f	0.004050791
159	0xbb88ac6f	-0.0041709463
160	0xbd3b72a4	-0.045763627
161	0xbd52fb2a	-0.05150906
162	0xbd2c4981	-0.042062286
163	0xbb1080ec	-0.00220495
164	0xbc666189	-0.01406134
165	0x3cb3d5ab	0.02195247
166	0x3c05c842	0.008165421
167	0x3c54db6e	0.012991769
168	0x3d202d17	0.0391055
169	0x3c5c0bad	0.013430518
170	0x3c1bc9e6	0.009508586
171	0x3c273d35	0.010207464
172	0x3d38b08d	0.045090247
173	0x3d0a3218	0.03373918
174	0x3c7a72c8	0.015286155
175	0xbc99a62e	-0.018755998
176	0xbd479020	-0.048721433
177	0x3a8e68e3	0.0010864999
178	0x3c1ea6c7	0.0096833175
179	0xbd0d8e1c	-0.034559354
180	0xbb771037	-0.0037698874
181	0xbd41788d	-0.047234107
182	0xbd1d45ec	-0.03839676
183	0xbc2b4c58	-0.0104552135
184	0xbd1851bb	-0.03718732
185	0xbb7147ac	-0.0036816401
186	0x3d247f4f	0.040160473
187	0x3c883bf1	0.016630145
188	0x3d1bcf1f	0.038039323
189	0x3d4a07b4	0.049323753
190	0xbc10e015	-0.008842488
191	0xbbb12173	-0.005405599
192	0xbb9037d9	-0.004401189
193	0x3b8e0df4	0.0043351594
194	0xbbe4dae4	-0.0069841016
195	0x3c93cf80	0.01804328
196	0x3c986e24	0.018607207
197	0x3bc89ae2	0.006121979
198	0x3ce9cde3	0.028540557
199	0x3d4a2b71	0.049357835
200	0x3cda6771	0.026660653
201	0x3cd6ee2c	0.026236616
202	0x3b22eb98	0.0024859663
203	0x3d4078bb	0.046990138
204	0xbb392747	-0.002825217
205	0xbc654a4f	-0.013994767
206	0xbd29ec3e	-0.041485064
207	0xb9200b40	-0.0001526298
208	0xbc4debb5	-0.012568404
209	0xbd45841d	-0.048221696
210	0x3d045891	0.032311026
211	0x3d24722e	0.040147953
212	0x3bf7a817	0.0075578797
213	0xbb224a5a	-0.0024763555
214	0x3c9c529f	0.019082366
215	0x3c1a29a5	0.009409343
216	0x3c8951ce	0.01676264
217	0x3d5bc154	0.05365117
218	0x3be7f1f3	0.007078403
219	0x3cfaacb7	0.030599935
220	0xbd402997	-0.046914663
221	0xbd4de9ad	-0.05027168
222	0xbd15de87	-0.03658917
223	0xbc1f9226	-0.009739434
224	0xbcb2d8e1	-0.021831932
225	0x3bccb864	0.006247567
226	0xbc70ce24	-0.014697585
227	0x3b704953	0.0036664798
228	0xbbd3f442	-0.006468327
229	0xbd53abfe	-0.051677696
230	0x3d5eef7a	0.0544276
231	0x3c466ce6	0.012110924
232	0xbb4cecb2	-0.003126901
233	0x3d2cdc28	0.042202145
234	0xbb6287da	-0.0034565837
235	0xbd4f9742	-0.05068136
236	0xbc8d5495	-0.017252246
237	0xbcdec202	-0.02719212
238	0x3bc59527	0.0060297432
239	0x3be0cad8	0.0068601184
240	0x3b2df07e	0.002654105
241	0x3d1e1c17	0.038601007
242	0x3d501b6d	0.050807405
243	0x3c0f572e	0.008748813
244	0x3d069122	0.032853253
245	0x3c5114cd	0.012761307
246	0xbc3e8379	-0.011628025
247	0xbbbef9df	-0.005828127
248	0xbd4dbb3f	-0.0502274
249	0xbd4a715f	-0.049424525
250	0x3d2ef3be	0.04271292
251	0x3d68e225	0.056856293
252	0x3c927c78	0.017881617
253	0x3d309e22	0.043119557
254	0xbb6c4d23	-0.003605672
255	0xbb99ce32	-0.00469377

conv.2.bias f4 [128]
0	0xbd3daa77	-0.046305146
1	0xbd3b2254	-0.045687035
2	0xbd611f7e	-0.054961674
3	0xbbf4a48e	-0.0074659055
4	0xbbe24b70	-0.0069059655
5	0x3c5cdf74	0.01348101
6	0xbcdee941	-0.027210834
7	0xbd48bf31	-0.04901046
8	0xbd48801b	-0.048950296
9	0xbcd4a195	-0.025955955
10	0xbd1d6c48	-0.038433343
11	0xbd5b41ee	-0.053529672
12	0xbadcac59	-0.0016836032
13	0xbc34390c	-0.010999929
14	0xbc26314a	-0.010143587
15	0xbafff2bc	-0.0019527297
16	0xbd15827a	-0.036501385
17	0x3bcb399e	0.006201937
18	0xbd2957e5	-0.04134359
19	0xbe00a814	-0.12564117
20	0xbcfd459d	-0.030916983
21	0xbcd80b77	-0.026372654
22	0xbcea90c0	-0.028633475
23	0xbca32261	-0.019913854
24	0xbce4f33e	-0.027948018
25	0xbb7ed255	-0.0038882692
26	0xbb75a1b6	-0.003748042
27	0xbb9edbd5	-0.0048479834
28	0xbc6f4371	-0.014603482
29	0xbc91767f	-0.017756699
30	0xbd20e3bf	-0.039279696
31	0xbb8ad6d5	-0.0042370358
32	0x3caea1dd	0.021317417
33	0xbd33134c	-0.043719575
34	0xbc237081	-0.0099755535
35	0xbd1e4f02	-0.038649566
36	0xbd455f0e	-0.048186354
37	0xbcbc1744	-0.022960313
38	0xbd10c62c	-0.03534524
39	0xbcb2806a	-0.021789748
40	0xbcbfa3b5	-0.023393491
41	0xbce1e3b4	-0.027574398
42	0xbc56d80e	-0.013113035
43	0xbc94db56	-0.018170994
44	0xbcb4d516	-0.022074264
45	0xbc244815	-0.010026951
46	0x3c3d8119	0.011566424
47	0xbd357d88	-0.04430917
48	0xbc8a0581	-0.016848328
49	0xbc29e835	-0.010370304
50	0xbd48169a	-0.04884968
51	0xbd3bd5f3	-0.045858335
52	0x3c285c8b	0.01027597
53	0xbcc939db	-0.02456372
54	0xbcf05343	-0.029336577
55	0xbd6d718d	-0.05796962
56	0xbc625e33	-0.013816404
57	0xbd0d75f5	-0.03453632
58	0xbd3e468b	-0.046453994
59	0xbc815a8d	-0.015790248
60	0xbcee4ffd	-0.029090876
61	0xb9cfa999	-0.00039608477
62	0xbcb1836d	-0.021669114
63	0xbcbaa3d0	-0.02278319
64	0xbd6b2f46	-0.05741813
65	0x3bc4e116	0.0060082776
66	0xbccc489c	-0.024936967
67	0xbcf2b44a	-0.029626984
68	0xbd2bf0d1	-0.041977707
69	0xbc9e2ea8	-0.019309357
70	0xbbeeafd2	-0.007284143
71	0xbd5d1db1	-0.053983394
72	0xbcc7a900	-0.024372578
73	0xbc1ad958	-0.009451233
74	0xbcb44bc6	-0.022008788
75	0xbd1b1da3	-0.03787006
76	0xbd68340e	-0.05669027
77	0xbb79059d	-0.003799773
78	0xbd36da60	-0.044641852
79	0xbbd0e12d	-0.0063744993
80	0x3cb3219f	0.021866618
81	0xbd53f9de	-0.051751964
82	0xbc8aef79	-0.016959893
83	0x3caf1b0c	0.021375202
84	0xbd505702	-0.050864227
85	0xbbe394c2	-0.0069452235
86	0xbcee1bda	-0.029066015
87	0xbc3ce7bf	-0.011529862
88	0xbc5156af	-0.012777015
89	0x3c4c9e74	0.01248895
90	0xbd5606ba	-0.05225251
91	0xbcf7974e	-0.030223515
92	0xbd35e854	-0.04441102
93	0xbd08da61	-0.033411387
94	0xbc914aa0	-0.01773578
95	0xbce58a03	-0.02801991
96	0xbc98c7ea	-0.018650014
97	0xbd81f7a5	-0.063460626
98	0xbd20ddf5	-0.039274175
99	0x3ca7a755	0.020465532
100	0xbd2693ab	-0.04066817
101	0xbc55b31a	-0.013043189
102	0xbd5b9f1b	-0.05361853
103	0x3b661f34	0.0035113813
104	0x3cb29737	0.02180062
105	0xbd284665	-0.04108276
106	0xbc9cfde9	-0.019164043
107	0xbcd1fce4	-0.025633283
108	0xbcbf1cc8	-0.023329154
109	0xbc8aaad8	-0.016927168
110	0xbd44799c	-0.04796754
111	0xbcfc9349	-0.03083195
112	0xbd1710af	-0.036881145
113	0xbd67ef20	-0.05662453
114	0xbbbd03ce	-0.005768276
115	0xbce52e51	-0.027976187
116	0xbce4956e	-0.027903285
117	0xbca20e6c	-0.019782268
118	0xbc88fc02	-0.01672173
119	0x3cc79c22	0.024366442
120	0xbaf6b5b5	-0.0018822463
121	0x3cd5d948	0.026104584
122	0xbb8e3b92	-0.0043405974
123	0xbc6d18f2	-0.014471279
124	0xbd5e98d0	-0.054344952
125	0xbd25aa03	-0.04044534
126	0xbc9b72f7	-0.018975718
127	0xbd2d039e	-0.042239778

fc.weight f4 [128, 128]
0	0xbd5c4f26	-0.05378642
1	0xbbb82033	-0.005619073
2	0xbd59cd11	-0.053174082
3	0x3baa526d	0.005197814
4	0x3db165a5	0.08661965
5	0x3d866842	0.06562854
6	0x3d28c31c	0.041201696
7	0xbd27f2a7	-0.041002896
8	0x3cf9d488	0.03049685
9	0xbbe42eb7	-0.0069635767
10	0xbcc37af9	-0.023862349
11	0xbd2e3c14	-0.042537764
12	0x3c332e97	0.010936401
13	0xbc85fb29	-0.016355114
14	0x3d0b4cdc	0.034008846
15	0x3d3c39a0	0.045953393
16	0x3d09a272	0.033602186
17	0x3c35f112	0.011104839
18	0xbc855a7c	-0.016278498
19	0x3e3867dd	0.1800837
20	0xba8770e4	-0.0010333327
21	0xbc8754fb	-0.016520014
22	0x3dad740f	0.08469402
23	0x3c504b63	0.012713286
24	0xbda83952	-0.08214058
25	0xbc2427d5	-0.010019262
26	0xbd2c9079	-0.042129967
27	0x3cc6cc0c	0.024267219
28	0x3cd29a9b	0.025708487
29	0xbc8ec85a	-0.01742952
30	0x3d1f789b	0.038933378
31	0x3ccb0ad9	0.024785446
32	0x3da2c9e9	0.079486676
33	0x3d32275a	0.04349456
34	0x3dbc103c	0.09182784
35	0x3ce7c0bb	0.028290143
36	0xbd9db0d1	-0.07699741
37	0xbc49968f	-0.012303962
38	0xbd5d5417	-0.054035272
39	0xbaa2230f	-0.0012370067
40	0x3d060817	0.03272256
41	0xbd7f0eb6	-0.06226989
42	0x3d0b501b	0.03401194
43	0x3decc086	0.115601584
44	0xbd8df2d8	-0.069310844
45	0x3b3be9bf	0.002867326
46	0x3d540afe	0.051768295
47	0xbd294772	-0.0413279
48	0xbd4d7f7d	-0.05017041
49	0x3c74591e	0.014913825
50	0xbcedbd5d	-0.02902096
51	0xbd8f455d	-0.06995652
52	0x3d90a652	0.07062973
53	0x3cc0780a	0.02349474
54	0xbd46298a	-0.04837946
55	0x3d8e5290	0.06949341
56	0x3cac0006	0.020996105
57	0xbd334f6d	-0.04377692
58	0x3c424458	0.011857115
59	0x3dc52f9e	0.09628223
60	0xbda68dee	-0.0813254
61	0x3d5df77e	0.054191105
62	0x3c755ec4	0.014976207
63	0xbda0bfda	-0.07849093
64	0xbd9e4194	-0.07727352
65	0xbd884c34	-0.066551596
66	0xbd063e3d	-0.0327742
67	0xbd1ce25a	-0.038301803
68	0x3c7f5f36	0.015586665
69	0x3ce3e94c	0.027821206
70	0xbbd531a7	-0.006506163
71	0xbd43dbaf	-0.04781693
72	0x3d26f67a	0.040762402
73	0x3cc0935b	0.023507765
74	0xbd3105d4	-0.04321845
75	0x3d1159a4	0.03548588
76	0x3cc3be80	0.023894548
77	0x3d4db5fc	0.050222382
78	0x3d0fa615	0.035070498
79	0xbc01cb14	-0.007921953
80	0x3da34f16	0.07974069
81	0x3d937b6b	0.072012745
82	0xbd425d0e	-0.047452025
83	0xbd50c967	-0.050973322
84	0xbca016f3	-0.019542193
85	0xbd0b193a	-0.033959605
86	0x3c93ee02	0.018057827
87	0xbc9a08b3	-0.018802976
88	0xbdbf1477	-0.09330075
89	0x3d16e440	0.03683877
90	0xbbf30900	-0.0074168444
91	0xbc1e836e	-0.00967489
92	0x3bd91db8	0.006625857
93	0xbd3b2d38	-0.04569742
94	0xbd37b90e	-0.044854216
95	0xbd7c72dc	-0.061632976
96	0xbd50caa0	-0.05097449
97	0x3d985475	0.07437984
98	0x3d809f4b	0.06280383
99	0x3d9b1356	0.075720474
100	0x3d4744d1	0.048649613
101	0x3dc49596	0.09598844
102	0xbc0e2a7e	-0.008677123
103	0x3cfb8a7d	0.030705685
104	0x3d3f3bd0	0.0466879
105	0xbc5eef43	-0.013606849
106	0x3d0d0090	0.034424365
107	0xbd9f5ed5	-0.0778176
108	0x3d6f8767	0.05847874
109	0xbc28e6b1	-0.010308907
110	0xbcfacd1d	-0.030615384
111	0x3d5d913f	0.054093596
112	0xbd883d29	-0.066522904
113	0x3d021aa9	0.031763706
114	0x3cb5826d	0.022156918
115	0xbd4f55fc	-0.05061911
116	0xbca11553	-0.019663488
117	0x3cc09f4e	0.023513462
118	0xbd7e532f	-0.06209105
119	0xbd3df57e	-0.046376698
120	0xbd4389f1	-0.047738973
121	0x3da712a4	0.08157852
122	0x3d0aff0b	0.033934634
123	0xbca6433e	-0.020295735
124	0xbcc3efb9	-0.02391802
125	0x3d623f57	0.055236187
126	0x3d36547c	0.044514164
127	0x3d850e9f	0.064969294
128	0x3d3126b1	0.04324979
129	0xbd1b3b79	-0.037898514
130	0xbd5eea35	-0.054422576
131	0xbd2fa527	-0.04288211
132	0xbd2e7c34	-0.042598918
133	0xbc19256b	-0.0093473
134	0xbd18309b	-0.03715573
135	0xbd2c9702	-0.0421362
136	0x3cf734da	0.030176569
137	0xba1b66d1	-0.00059281016
138	0x3dab9e7c	0.08379838
139	0x3d7b9dac	0.061429664
140	0xbd1f8ae9	-0.038950834
141	0xbcfb5eaa	-0.030684788
142	0xbce22477	-0.027605278
143	0x3d5e9c36	0.054348193
144	0xbd9c92be	-0.07645176
145	0xbd5e1e08	-0.05422786
146	0xbc71480d	-0.014726651
147	0x3e044ca9	0.12919869
148	0x3d47f1fb	0.048814755
149	0xbcfbacc3	-0.030722028
150	0xbd25e16e	-0.04049819
151	0xbaa408ec	-0.0012514866
152	0x3cbc2723	0.02296788
153	0xbd44f114	-0.048081473
154	0x3c4f4915	0.012651701
155	0x3d0479bd	0.03234266
156	0x3c68d381	0.014210583
157	0x3ca1845c	0.019716434
158	0xbcf4be20	-0.029875815
159	0x3c456e4b	0.012050222
160	0x3c7e33e0	0.015515298
161	0x3d33c669	0.04389039
162	0x3ce8a48e	0.028398778
163	0xbd3ba9b9	-0.045816157
164	0xbbe811ad	-0.0070821852
165	0xbd39aa2d	-0.045328308
166	0x3bb18bad	0.005418262
167	0x3d5ad75f	0.05342805
168	0xbcfb631f	-0.030686913
169	0xbaeda861	-0.0018131846
170	0x3d2bc0ec	0.04193203
171	0x3d5800c4	0.052735105
172	0x3cd483b0	0.0259417
173	0x3d0c58b1	0.03426427
174	0xbd50e17d	-0.050996292
175	0x3d3e0572	0.04639191
176	0x3ba4256e	0.005009345
177	0x3d76117b	0.060075264
178	0xbb43daec	-0.0029885126
179	0xbd8ce87d	-0.06880281
180	0x3d79d472	0.06099362
181	0x3cc9ced6	0.02463476
182	0x3c87a224	0.016556807
183	0x3c2330b6	0.009960344
184	0xbcb65fe0	-0.022262514
185	0x3d605f15	0.054778177
186	0xbcd2f280	-0.025750399
187	0xb990e1a0	-0.00027633924
188	0xbd3276b6	-0.043570243
189	0xbd9babd9	-0.07601137
190	0x3d7f61bf	0.062349077
191	0xbceb09ee	-0.028691258
192	0xbd11ab5e	-0.03556382
193	0xbc6cfec5	-0.014465039
194	0x3a53e71d	0.000808345
195	0x3dadb751	0.084822305
196	0xbd4865bd	-0.04892515
197	0x3d71c728	0.05902782
198	0x3d9fc2d1	0.0780083
199	0xbd8c0e57	-0.068386726
200	0x3cc6465a	0.024203468
201	0xbd1e9785	-0.03871872
202	0x3d6f93e8	0.058490664
203	0x3d1ba542	0.0379994
204	0x3cbc0adc	0.022954397
205	0xbd012a28	-0.031534344
206	0xbbc7a5c8	-0.0060927607
207	0x3d0f2b5d	0.034953464
208	0x3d2fad90	0.04289013
209	0xbc90070b	-0.017581483
210	0xbc91cfa0	-0.017799199
211	0x3d82536f	0.0636357
212	0xbda1d278	-0.07901472
213	0x3ce77355	0.028253237
214	0x3d251bbb	0.04030965
215	0x3d7ae9a2	0.061257966
216	0xbd3d214c	-0.046174332
217	0x3df1348a	0.11777599
218	0xbd83821e	-0.06421302
219	0x3d021b58	0.03176436
220	0x3db9bdcf	0.09069406
221	0x3ca6d323	0.02036435
222	0x3ca556c3	0.020182973
223	0xbd13ab0d	-0.0360518
224	0x3d98f7f6	0.0746917
225	0x3da8296e	0.08211027
226	0x3abefe03	0.0014571551
227	0x3d31826f	0.04333728
228	0x3cb6eba4	0.02232916
229	0xbc87b822	-0.016567294
230	0x3d1b6caa	0.037945427
231	0xbce10c2f	-0.02747163
232	0xbc8d82b3	-0.017274236
233	0x3bf7ff2e	0.0075682616
234	0x3c8802d2	0.016602907
235	0x3aac0ee5	0.0013126998
236	0x3d5428c8	0.051796705
237	0x3d8f4940	0.06996393
238	0x3d46ad40	0.048505068
239	0xbd6fd5bc	-0.058553442
240	0xbd643841	-0.05571771
241	0x3d4080ef	0.04699796
242	0x3d25242f	0.04031771
243	0xbd3dc311	-0.046328608
244	0x3db538ab	0.08848699
245	0x3db97195	0.09054867
246	0x3cd23820	0.025661528
247	0x3dbaa20e	0.09112941
248	0xbb7d8974	-0.0038686665
249	0x3d88393f	0.06651544
250	0x3c8ba5ca	0.017046828
251	0x3c4b207b	0.012397881
252	0xbdc127f3	-0.09431448
253	0x3cc3149d	0.02381354
254	0xbc86e0f2	-0.016464684
255	0x3b925301	0.0044654612

fc.bias f4 [128]
0	0xbcb14872	-0.02164099
1	0x3d1e43d5	0.03863891
2	0xbd77169a	-0.06032429
3	0x3cea9af8	0.028638348
4	0xbd7b719a	-0.061387636
5	0x3c943547	0.01809181
6	0x3c884f15	0.016639272
7	0xbd3241fd	-0.043519963
8	0xbc909321	-0.017648282
9	0x3c9bf67a	0.019038428
10	0x3cb62ec2	0.022239093
11	0x3b40700e	0.0029363665
12	0xbd5bdd7b	-0.053678017
13	0x3c7325c4	0.014840547
14	0x3cdcadf6	0.02693842
15	0x3cb48981	0.022038223
16	0x3c19e3f1	0.009392724
17	0x3bb2dc58	0.005458396
18	0x3b7269d4	0.0036989348
19	0x3d2fd2b7	0.042925563
20	0xbd799345	-0.060931463
21	0xbc15688d	-0.009119165
22	0xbc9ccc82	-0.019140486
23	0x3d541cee	0.051785402
24	0xbc6f646d	-0.014611346
25	0xbcd880a8	-0.026428536
26	0x3d008703	0.031378757
27	0x3a045883	0.00050485897
28	0x3bf88f38	0.0075854324
29	0xbd17e75f	-0.037085887
30	0xbcd5a875	-0.026081303
31	0x3d5bfceb	0.053708
32	0xbcfd5e64	-0.030928798
33	0xbcf951f5	-0.030434588
34	0x3ce1ceed	0.02756449
35	0x3c62ebe1	0.013850183
36	0xbc263b26	-0.010145938
37	0xbcd56e32	-0.026053522
38	0x3d3a0e6c	0.04542391
39	0xbd7faf22	-0.06242288
40	0xbc47f0d2	-0.012203412
41	0x3bec6360	0.007213995
42	0x3c81eb48	0.015859261
43	0x3c82985b	0.01594179
44	0x3c1224e7	0.008919931
45	0x3c6a2ecb	0.014293383
46	0x3d8c8e90	0.06863129
47	0x3c2d8797	0.010591409
48	0xbd25ca1b	-0.040475946
49	0x3d69d673	0.05708928
50	0x3d800540	0.06251001
51	0xba1978f0	-0.0005854508
52	0xbbd4a507	-0.0064893994
53	0xbd3b49df	-0.045724746
54	0xbd5fd11e	-0.05464279
55	0x392f6aaa	0.00016729036
56	0xbd1a84ca	-0.037724294
57	0xbc9b4166	-0.018952083
58	0x3c862b04	0.016377933
59	0x3ce1c627	0.027560307
60	0xbcf03d75	-0.02932618
61	0x38678d4c	5.5206285e-05
62	0xbc2c7a16	-0.010527154
63	0x3d3f7d68	0.046750456
64	0x3d165d1b	0.036709886
65	0x3cc458b2	0.023968074
66	0x3d293f54	0.04132016
67	0xbd82776a	-0.06370433
68	0xbba28efb	-0.0049608923
69	0x3cab3d2b	0.02090319
70	0x3bded7ca	0.0068006264
71	0xbc194701	-0.009355308
72	0x3b03075c	0.00199934
73	0x3d0107c4	0.031501547
74	0x3d4ed4c2	0.05049587
75	0x3cb3ca7a	0.021947134
76	0x3c163055	0.009166797
77	0xbc0788bd	-0.008272347
78	0xbd4f255d	-0.05057274
79	0xbc0b21b0	-0.008491918
80	0xbd7a4416	-0.061100088
81	0xbcc292e3	-0.023751682
82	0xbd0cf49c	-0.034412965
83	0xbd43e695	-0.047827322
84	0x3d8a8a10	0.067646146
85	0x3cc82086	0.02442957
86	0x3d3297ee	0.043601923
87	0xbd1d9800	-0.038475037
88	0xbc491cf3	-0.012274968
89	0x3cd44488	0.025911584
90	0x3c8aada0	0.016928494
91	0x3c862740	0.016376138
92	0x3c95411a	0.01821952
93	0x3d93e9e0	0.072223425
94	0x3c5921b5	0.013252665
95	0x3d42737a	0.04747341
96	0xbd7c8890	-0.061653674
97	0x3d29dbfa	0.04146955
98	0xbc571bdf	-0.013129204
99	0xbcc8dab5	-0.02451835
100	0x3d609bd5	0.054836113
101	0xbd613f6b	-0.05499212
102	0xbd55c19c	-0.052186593
103	0x3c848d8a	0.016180772
104	0x3c9180e2	0.017761651
105	0xbc2ddede	-0.010612218
106	0xbcb5f025	-0.022209236
107	0x3d320ae1	0.043467406
108	0xba84a35a	-0.0010119483
109	0x3cf31a69	0.02967568
110	0x3c921466	0.017831992
111	0x3bc99a7d	0.0061524496
112	0x3c1c5c9f	0.009543567
113	0x3d1bbb91	0.038020674
114	0x3d059e6c	0.032621786
115	0xbb0e4520	-0.0021708682
116	0xbd1cf740	-0.038321733
117	0xbcd59453	-0.026071703
118	0x3c22f099	0.009945058
119	0x3cb862c4	0.022508033
120	0xbd817683	-0.063214324
121	0xbd19cfa6	-0.037551545
122	0xbd5a1ace	-0.05324822
123	0xba8a26bc	-0.0010540108
124	0xbcf23a87	-0.029568924
125	0xbd0ac414	-0.0338784
126	0x3ced089c	0.02893477
127	0xbd37c7ea	-0.044868387
